…
    "    tf.keras.layers.Dense(1, activation=\"sigmoid\")\n",
    "])\n",
    "\n",
    "model.compile(optimizer=\"adam\", loss='binary_crossentropy', metrics=['acc'])"
   ]
  },
  {
   "cell_type": "code",
   "execution_count": 63,
   "metadata": {},
   "outputs": [
    {
     "name": "stdout",
     "output_type": "stream",
     "text": [
      "Model: \"sequential_1\"\n",
      "_________________________________________________________________\n",
      "Layer (type)                 Output Shape              Param #   \n",
      "=================================================================\n",
      "conv2d_3 (Conv2D)            (None, 148, 148, 16)      448       \n",
      "_________________________________________________________________\n",
      "max_pooling2d_3 (MaxPooling2 (None, 74, 74, 16)        0         \n",
      "_________________________________________________________________\n",
      "conv2d_4 (Conv2D)            (None, 72, 72, 32)        4640      \n",
      "_________________________________________________________________\n",
      "max_pooling2d_4 (MaxPooling2 (None, 36, 36, 32)        0         \n",
      "_________________________________________________________________\n",
      "conv2d_5 (Conv2D)            (None, 34, 34, 64)        18496     \n",
      "_________________________________________________________________\n",
      "max_pooling2d_5 (MaxPooling2 (None, 17, 17, 64)        0         \n",
      "_________________________________________________________________\n",
      "flatten_1 (Flatten)          (None, 18496)             0         \n",
      "_________________________________________________________________\n",
      "dense_3 (Dense)              (None, 512)               9470464   \n",
      "_________________________________________________________________\n",
      "dense_4 (Dense)              (None, 1)                 513       \n",
      "=================================================================\n",
      "Total params: 9,494,561\n",
      "Trainable params: 9,494,561\n",
      "Non-trainable params: 0\n",
      "_________________________________________________________________\n"
     ]
    }
   ],
   "source": [
    "model.summary()"
   ]
  },
  {
   "cell_type": "markdown",
   "metadata": {},
   "source": [
…
